geonets/test/output/double_pendulum_sympnet.pt (torch, 9583 bytes, 18 tensors)

b f4 [4]
00000000: d16b a63f 4638 40be b18f fd3c 3dea 97be
1.3001653 -0.18771467 0.030952306 -0.29670897

A f4 [2, 2]
00000000: 221c c83e c2f3 a73c 51cc 02bf 980b bcbd
0.39083964 0.020501975 -0.5109301 -0.09181899

A f4 [2, 2]
00000000: 6ea1 483e 3303 4cbf 0765 c33f 3202 663e
0.1959283 -0.7969238 1.5265206 0.22461775

A f4 [2, 2]
00000000: 4829 4dbf fb09 063f 0a92 e43e 196d 44bc
-0.80141115 0.5235898 0.4464267 -0.0119889015

A f4 [2, 2]
00000000: 30c9 b73f 8c59 08bf a729 e33e 3f4e 993e
1.4358273 -0.5326164 0.44367716 0.2994251

a f4 [2]
00000000: 234f 37bf 96df 1ebd
-0.7160513 -0.038787447

b f4 [4]
00000000: cc5e cebe 0681 2ebe 6222 05bd 8c3e ba3f
-0.403067 -0.17041406 -0.032503493 1.4550338

A f4 [2, 2]
00000000: 421c 1ebf ccd7 71be 4e26 0f3f b33e cfbd
-0.6176187 -0.23617476 0.55917823 -0.10119381

A f4 [2, 2]
00000000: 6d12 84be 1706 49bf 77c3 c23f 0fee 1ebf
-0.25795308 -0.7852492 1.5215901 -0.62082

A f4 [2, 2]
00000000: 6252 94bf 6417 b8be fa59 5bbf f45d 5fbf
-1.1587641 -0.35955346 -0.8568417 -0.87252736

A f4 [2, 2]
00000000: 4acb 81be dd59 4fbf d71b a8bf 7eaa cc3e
-0.2535041 -0.80996495 -1.3133496 0.39973825

a f4 [2]
00000000: 712b adbb cb7b 1fbc
-0.0052847196 -0.009734104

b f4 [4]
00000000: 174b 0a3f 6abf 913f c20d 913d e539 cfbe
0.5402083 1.138654 0.07082702 -0.40473858

A f4 [2, 2]
00000000: 5161 873e c51a 273f 219e 4c3f 6937 d63d
0.26441434 0.6527522 0.79928786 0.104597874

A f4 [2, 2]
00000000: d18d 3fbd f692 f2be 8dcc 943f bde4 acbd
-0.046766106 -0.47377747 1.1624924 -0.08442066

A f4 [2, 2]
00000000: 52cb 963e 600b 4cbf bab8 443f 6890 4fbe
0.29451996 -0.79704857 0.7684437 -0.2026993

A f4 [2, 2]
00000000: c2ab 0a3f 0549 babe 3cc7 503e 0407 d93d
0.5416833 -0.36383834 0.20388502 0.10597041

a f4 [2]
00000000: 301c 38c0 9ddc dbbe
-2.8767204 -0.42941752
