geonets/test/output/em_particle.pt (torch, 21223 bytes, 42 tensors)

K1 f4 [4, 2]
000000 57 e1 ff bf c5 9a 46 c0 08 39 62 be bc ef 2a 40
       -1.9990643 -3.1031964 -0.22092068 2.6708822
000010 db 1a 7d bd d5 1e 02 bf dd 84 5e be ed be b1 bf
       -0.06179319 -0.50828296 -0.21730371 -1.3886391

K2 f4 [4, 2]
000000 b4 df 89 c0 ae 63 c8 3c 21 13 c8 3f 57 31 ee 3f
       -4.3085575 0.024461593 1.5630838 1.8608807
000010 a2 59 e0 c0 ba 9d e3 3e d0 b3 18 3f 93 0e 6f 3d
       -7.0109415 0.44456273 0.5964937 0.05836351

a f4 [4]
000000 a3 f5 90 3f ce 58 28 c0 08 1d 20 3f f8 06 04 c0
       1.1324962 -2.6304202 0.625443 -2.0629253

b f4 [4]
000000 89 aa 4e c0 83 b2 39 3f bc 92 17 c0 36 d4 a2 3e
       -3.2291586 0.7253801 -2.368331 0.3180253

K1 f4 [4, 2]
000000 2b 03 79 bd 4f c6 dc bf 30 d3 32 3d 15 87 38 3e
       -0.060794037 -1.7248019 0.043658435 0.1802028
000010 61 6a 2d ba dd 04 9f bf 67 1a 19 3e 68 1b 3b bf
       -0.0006615278 -1.2423359 0.14951478 -0.73088694

K2 f4 [4, 2]
000000 fe 8d 0a c0 f1 92 53 3d 08 7a 9d bf 8f 1d 65 bd
       -2.1649165 0.051653806 -1.2302866 -0.055936392
000010 6b 05 86 c0 30 47 97 bc 3e 2b e6 c0 0f 38 5e bd
       -4.1881614 -0.018466562 -7.1927786 -0.05425268

a f4 [4]
000000 b2 c9 ad 3d 49 26 63 bf 96 d9 83 be 3a 74 19 3e
       0.08485736 -0.88730294 -0.25751942 0.14985743

b f4 [4]
000000 96 eb 7a c0 3a 70 03 40 42 61 7a 3f cd 17 ce 40
       -3.920629 2.0537248 0.97804654 6.4404054

K1 f4 [4, 2]
000000 73 7f fe 3e 1c 4b 3e c0 8a 46 96 be f5 3e 00 c0
       0.4970661 -2.9733343 -0.29350692 -2.0038426
000010 ec 24 fb bd 04 3d 06 40 e2 c6 33 40 e7 5e d5 40
       -0.12262902 2.097474 2.8090138 6.6678348

K2 f4 [4, 2]
000000 1e 00 51 c0 0f 42 0e bd e7 c1 89 c0 31 40 7e bd
       -3.2656322 -0.034730967 -4.3049197 -0.062072936
000010 a1 80 7a 40 91 87 dc bc 77 aa 22 c1 09 64 4a be
       3.914101 -0.026920112 -10.166617 -0.19764723

a f4 [4]
000000 fe 0a 58 bf 60 f6 9c 3f 88 c7 71 40 95 3b af 3d
       -0.8439177 1.2262688 3.7778034 0.08556286

b f4 [4]
000000 18 1b a7 40 4d 90 26 41 5f 56 61 c0 89 54 af be
       5.2220573 10.41023 -3.5208967 -0.34244183

weight f4 [4, 4]
000000 6f 5d d8 bf 8d b5 37 c1 d7 9e 69 bf 33 51 b4 3b
       -1.6903514 -11.481824 -0.91257995 0.0055028438
000010 9e d7 a3 3d ad fc 04 c1 14 4e cf 40 97 a4 8a bd
       0.0800011 -8.311688 6.478281 -0.06769674
000020 a0 c6 41 c0 0f b3 73 41 38 0b db c0 94 8f 24 3e
       -3.027748 15.2312155 -6.8451195 0.16070396
000030 c6 3a 0e 41 c6 ae 19 c1 d8 e3 31 41 7f 7b 91 bd
       8.889349 -9.605169 11.118126 -0.07103633

bias f4 [4]
000000 bb 40 24 c0 56 32 9e c0 67 47 03 c1 40 05 82 c1
       -2.5664508 -4.9436445 -8.204932 -16.252563

weight f4 [4, 4]
000000 4c b7 5e 40 26 d8 19 41 c8 bc 33 c0 cd c1 7e c0
       3.4799376 9.615271 -2.8083973 -3.9805787
000010 18 5d 91 40 78 21 cc 40 ab 74 0b c0 a4 7b 05 c1
       4.542614 6.3790855 -2.1789958 -8.342686
000020 63 f9 92 40 3c 63 ac 40 a6 2d b0 bf 7c d8 88 c1
       4.5929427 5.3871136 -1.3763931 -17.105705
000030 1b bb 8e 40 5c bc 2d 3f fc 77 ce bf 70 16 c4 c1
       4.46034 0.6786554 -1.6130366 -24.510956

bias f4 [4]
000000 79 14 a7 bf b7 e3 21 bf 1e 82 cd bf 38 8a 61 bf
       -1.3053123 -0.6323809 -1.6055334 -0.8810153

weight f4 [4, 4]
000000 cf fd 5b 40 f6 0f 5f 40 c9 81 40 40 5d 6e 57 40
       3.4373662 3.4853492 3.0079215 3.366111
000010 cc 2a 73 40 a5 1d 42 40 c0 39 47 40 ad 78 40 40
       3.799487 3.0330594 3.1128998 3.0073655
000020 0b c6 43 40 44 5f 9c 40 82 de 8a 40 30 57 a8 40
       3.0589626 4.886629 4.3396616 5.260643
000030 c9 8a ed 40 d7 83 0d 40 37 d3 ba 3f 82 5c fe 3f
       7.4231915 2.2111719 1.4595708 1.9871981

bias f4 [4]
000000 22 1b 82 c0 67 cc 8a c0 36 2f 5d c0 86 b8 97 c0
       -4.065812 -4.3374515 -3.4560065 -4.741275

weight f4 [4, 4]
000000 61 26 30 40 57 89 21 40 24 53 2e 40 d4 99 92 3f
       2.7523425 2.5240076 2.7238245 1.1453195
000010 6f 8c 6d 3f 38 de aa 3f d8 6f a8 bf bd 73 8f 40
       0.9279241 1.3349066 -1.3159132 4.482878
000020 81 48 8b c0 6a 70 8c c0 37 5b 9d c0 63 1e fd c0
       -4.3526006 -4.3887224 -4.9173846 -7.9099593
000030 3a ad 13 41 fc 2e 15 41 09 06 06 41 33 83 11 40
       9.229792 9.323971 8.376473 2.2736328

bias f4 [4]
000000 3e 3f c3 c0 9a 18 9e c0 07 47 fa 3f b9 c9 de c0
       -6.10147 -4.940503 1.9552926 -6.9621243

weight f4 [2, 4]
000000 f6 af 0a c1 5e 6d 42 c0 2d a7 0c 41 6a 86 fc 3e
       -8.667959 -3.0379252 8.790814 0.493213
000010 d7 87 25 bf f5 cc c9 40 a9 78 c1 c0 76 de 8f 3e
       -0.646604 6.306269 -6.045979 0.28099412

bias f4 [2]
000000 1d 07 87 be de e3 24 bf
       -0.26372615 -0.644102

weight f4 [4, 2]
000000 68 a8 a1 3f d4 63 81 bf 8b c3 86 bf 01 df 7d c0
       1.2629519 -1.010859 -1.0528425 -3.966736
000010 76 ae 65 3f 4d 61 1f 3f a2 ea 8c 3f bd 72 43 bf
       0.8971933 0.62257844 1.1009104 -0.7634695

bias f4 [4]
000000 3a b6 fe bf 66 4b 3b c0 98 df 09 be f8 74 aa 3e
       -1.9899361 -2.926477 -0.134642 0.33292365

weight f4 [4, 4]
000000 14 2e b8 3f 2c 57 0e 3f 2a 6c 1b 40 b5 92 d4 3f
       1.4389062 0.55601764 2.4284768 1.6607271
000010 d6 6d 24 c1 9d 15 66 c0 ba 39 ab 3f da 22 12 41
       -10.276815 -3.5950692 1.3376992 9.133509
000020 9d ee 22 3f b0 79 c6 3e f3 38 f4 3f 03 ce b1 3f
       0.63645345 0.38764715 1.907988 1.3890995
000030 87 ab 3e 3f 8e 4f e5 3e 72 78 08 40 d4 71 86 3f
       0.7448048 0.44787258 2.1323514 1.0503488

bias f4 [4]
000000 89 5b 3c c0 37 3d 6d bf e8 7e 73 c0 bc 7a 62 c0
       -2.9430869 -0.9267153 -3.8046207 -3.538741

weight f4 [4, 4]
000000 a1 6d 0b 3f 47 23 83 3f a6 97 3c 3f 83 45 01 40
       0.54464155 1.0245141 0.736689 2.0198677
000010 06 ad 16 41 54 b2 43 40 ee 8d 13 41 76 42 36 41
       9.417242 3.0577593 9.222151 11.391226
000020 90 59 8b 3f 63 60 b1 3f 38 e3 99 3f e0 ea 8c 3f
       1.0886707 1.385754 1.2022467 1.1009178
000030 f7 da 15 40 59 47 10 40 23 c8 ae 3f 9d d0 de 3f
       2.3414896 2.2543547 1.3654827 1.7407414

bias f4 [4]
000000 90 8b 70 c0 c3 eb 84 c0 a6 43 8a c0 79 d6 30 c0
       -3.7585182 -4.1537795 -4.320758 -2.7630904

weight f4 [4, 4]
000000 09 e4 82 3f bc 49 27 be 04 3c 06 40 cd 16 11 3f
       1.0225841 -0.16336721 2.097413 0.56675416
000010 45 73 b9 3f e7 08 e3 3f 41 01 1a 40 3e 54 18 40
       1.4488302 1.7737092 2.4063265 2.3801417
000020 38 4b 18 40 56 7e 16 40 7e bf 81 40 41 db 26 40
       2.379591 2.351461 4.0546255 2.6071322
000030 ef d1 c9 3f 2b 74 72 3f 01 8f 0f 40 8c 14 8a 3f
       1.5767192 0.9470851 2.2431033 1.078752

bias f4 [4]
000000 0f f8 85 c0 b7 28 13 c0 5d bd 3a c0 7f 03 5a c0
       -4.1865306 -2.29936 -2.9178078 -3.4064634

weight f4 [4, 4]
000000 42 c1 70 bf e5 9a 2f bf f8 e1 16 bf 82 1f e8 be
       -0.9404489 -0.68595725 -0.5893855 -0.4533654
000010 04 8c 62 c0 b0 88 09 c0 28 62 76 bf 33 8c 4e c0
       -3.5397959 -2.1489677 -0.96243525 -3.227307
000020 fd 04 04 c1 9c 62 b9 c0 5f d4 8f c0 fd 29 00 c1
       -8.251218 -5.7932873 -4.494674 -8.010251
000030 0f a6 21 41 3b b6 ea 40 69 91 2b 40 44 c8 19 41
       10.103042 7.334745 2.6807501 9.611393

bias f4 [4]
000000 47 4f 7e 40 bf 44 90 40 9b cf d4 3e 39 e1 2c 41
       3.9735887 4.508392 0.4156464 10.804986

weight f4 [4, 4]
000000 73 b4 b0 3e 79 a3 04 c0 89 95 e7 40 1d 46 1d 3b
       0.34512672 -2.0724776 7.237004 0.002399809
000010 76 1f a8 c1 35 f0 ab 3e f9 db 94 3f ea ad 9c 3a
       -21.015362 0.335817 1.162963 0.0011953686
000020 74 bf db 3f 69 bd 3d 3f 57 de d5 3f 7c 95 f4 3e
       1.7167802 0.7411714 1.6708478 0.47770298
000030 5a b9 a0 3f 02 c6 e2 40 0e 69 f3 c0 fb 2f 42 be
       1.2556565 7.086671 -7.606574 -0.18963616

bias f4 [4]
000000 2d e3 6f c0 d0 da 32 40 ab 4b 12 c1 2a 87 d0 be
       -3.7482407 2.7946053 -9.143474 -0.40728122

weight f4 [4, 4]
000000 d4 e6 8c c0 8a 4a a5 bf 1f d9 7d 40 27 60 ce 3f
       -4.4031773 -1.2913373 3.966377 1.6123093
000010 3f a3 86 c0 d6 8a 02 c0 35 5e 7b 40 8e c3 fa 3e
       -4.2074275 -2.0397239 3.927625 0.4897732
000020 4e 5d 86 c0 2c 5d e8 bf 88 73 62 40 e1 20 19 41
       -4.1988897 -1.8153434 3.5383015 9.570527
000030 75 aa 34 40 c4 09 62 40 0e 60 54 c0 65 6c 83 41
       2.8229039 3.531846 -3.3183627 16.427927

bias f4 [4]
000000 4b e0 9f bf 4e 44 cb be e8 41 2b bd e7 0f 14 bf
       -1.2490324 -0.3970055 -0.0418109 -0.57836765

weight f4 [4, 4]
000000 62 9c 3e 40 f8 0e 3e 40 27 59 39 40 6c 66 ba 40
       2.9782948 2.9696636 2.8960664 5.8250027
000010 ea f1 58 40 4c 74 8d 40 d7 81 e3 40 0e 1e 31 c0
       3.3897653 4.4204464 7.1095996 -2.7674594
000020 03 46 a5 40 b4 df 8f 40 cb 6b 2e 40 7d aa 9f c0
       5.1647964 4.4960575 2.7253292 -4.9895616
000030 fd ea a1 40 37 9d 9e 40 12 92 3e 40 e1 06 9a c0
       5.059935 4.9566913 2.9776654 -4.8133397

bias f4 [4]
000000 e6 4f a2 40 37 cf 22 c0 fc 45 29 c0 b9 f4 2c c0
       5.072253 -2.5438974 -2.6448965 -2.7024367

weight f4 [4, 4]
000000 00 72 bc 40 e9 ea 0d 40 9d a9 d7 3f 2b 54 c9 3f
       5.888916 2.2174628 1.6848637 1.5728811
000010 f3 1c 7c c0 0a 4d 14 41 f8 2b 2f 41 b0 3b 45 41
       -3.939267 9.268808 10.948235 12.327072
000020 31 92 1d c0 d9 6a 49 40 55 8b 80 40 a3 99 6c 40
       -2.4620478 3.1471465 4.0170083 3.6968772
000030 27 58 7f c0 b6 76 81 40 87 0a a8 40 84 38 a9 40
       -3.9897554 4.045741 5.251285 5.288149

bias f4 [4]
000000 ef 7f a7 40 df ff 81 c0 96 12 84 c0 2d a8 8b c0
       5.234367 -4.0624843 -4.127269 -4.3642793

weight f4 [2, 4]
000000 10 76 b6 c0 da e1 1f 41 04 56 40 41 2f 6c 6c 41
       -5.701912 9.99264 12.021 14.776412
000010 45 d2 ce 40 53 42 c8 3f 20 0d 7a 3f 21 d9 9f 3f
       6.4631677 1.564524 0.9767628 1.2488137

bias f4 [2]
000000 ac 74 b0 c0 c4 60 dd 40
       -5.514242 6.918062
