geonets/test/output/lotka_volterra_small_weights.pt (torch, 25493 bytes, 30 tensors)

b f4 [2]
000000 77 34 20 c0 c1 d2 d3 3d
       -2.5032022 0.103429325

b f4 [2]
000000 0f f5 34 3f 9d 6a fa be
       0.7068643 -0.48909464

b f4 [2]
000000 14 bf 57 bf d1 83 b3 3f
       -0.8427594 1.4024602

weight f4 [4, 1]
000000 fe 64 55 bf 04 46 b1 40 31 bb 28 40 57 32 96 3f
       -0.83357227 5.539797 2.6364253 1.1734113

bias f4 [4]
000000 7e 61 06 40 97 0c 8e c0 8f 4b b9 c0 0f 91 a0 c0
       2.0997005 -4.439037 -5.7904735 -5.0177073

weight f4 [4, 4]
000000 e0 21 0e c0 2b ca 03 40 39 30 58 40 86 77 b7 3f
       -2.2208176 2.0592144 3.3779433 1.4333351
000010 7a 1a 41 c0 be 2d e5 bd af 5f 3c 3f 7d b2 5d 40
       -3.017241 -0.11190365 0.735835 3.464019
000020 95 32 66 c0 e3 88 3f 41 51 db 1e 41 1d 3a 8a 40
       -3.5968373 11.97092 9.928544 4.319594
000030 e5 b4 ce 3f 7d a7 99 bf d3 4b 17 c0 af e9 0f c0
       1.6148955 -1.2004238 -2.364003 -2.248638

bias f4 [4]
000000 34 e0 f5 bf d7 eb 2f c0 50 2f 2c c0 74 99 a1 3f
       -1.9209046 -2.7487695 -2.6903877 1.2624955

weight f4 [4, 4]
000000 cc c5 9f bf cc 83 2d c0 2a 91 ab bf b0 66 4a 40
       -1.2482238 -2.7111692 -1.3403676 3.1625175
000010 32 14 ec 40 19 0e 45 40 f6 d2 b1 41 59 e7 06 c1
       7.3774652 3.0789855 22.228008 -8.431481
000020 56 de a0 40 29 81 45 40 9c 29 e8 3f f4 fa 3f c0
       5.0271406 3.0860083 1.8137698 -2.999692
000030 62 1e b6 bf b5 44 49 c0 45 50 c7 be 84 6c 6b 40
       -1.4228022 -3.1448185 -0.38928428 3.6784983

bias f4 [4]
000000 b2 6a 86 3f 7b 7f b4 c0 ab 5d ad bf 96 1a ce 3f
       1.0501311 -5.6405616 -1.354421 1.6101863

weight f4 [4, 4]
000000 1e cf 09 c0 bf 53 47 40 64 88 05 41 7c c8 a5 bf
       -2.1532664 3.1144865 8.3457985 -1.2951808
000010 91 b2 2f 40 ac 19 97 c0 1b 13 11 c1 5f b7 be 3f
       2.7452738 -4.721884 -9.067164 1.489971
000020 cc 86 b1 c0 61 13 b6 3e d0 58 11 40 2e ce c7 c0
       -5.5477047 0.3556166 2.2710457 -6.2439184
000030 53 5f ab c0 5e ef 12 3f a0 5e 01 40 0f cc c7 c0
       -5.3553863 0.57396495 2.0214005 -6.2436595

bias f4 [4]
000000 52 46 e5 3e 4c 41 22 3e 60 15 82 bf 42 3c 80 bf
       0.44780213 0.15845221 -1.0162773 -1.0018389

weight f4 [1, 4]
000000 0c f8 be 3f c9 c8 5f c1 4e 2a fe 40 77 a5 dd 40
       1.4919448 -13.98652 7.942664 6.9264483

weight f4 [4, 1]
000000 63 51 d1 c0 a6 60 8d bf 4e 50 56 c0 9a 35 cc c0
       -6.541185 -1.104512 -3.3486514 -6.381543

bias f4 [4]
000000 4c 48 0a 40 84 f2 aa 40 df e7 6e 40 54 77 ec 3f
       2.1606627 5.342104 3.7329023 1.8473916

weight f4 [4, 4]
000000 8f ee 0a 41 67 35 df be 54 43 18 3e c8 2e 1a 41
       8.683242 -0.4359543 0.14869434 9.636421
000010 68 bc 39 40 3a 9f 12 3f 17 12 4e 3f 3a 48 3c 40
       2.9021244 0.5727421 0.8049635 2.9419084
000020 1f 56 bd 3f 9e a7 39 40 3b fe 8b 40 c0 43 91 3f
       1.4791907 2.9008555 4.374784 1.1348801
000030 6e 8a aa 3f aa 63 fb 3f dc ab 52 40 85 e7 11 40
       1.3323495 1.963979 3.2917395 2.2797558

bias f4 [4]
000000 69 3b ad c0 90 34 9e c0 9f 2e 28 c0 4b ca 7a c0
       -5.413502 -4.9439163 -2.6278455 -3.918597

weight f4 [4, 4]
000000 4a 05 dc bf 7c f8 99 bf 75 ff a1 bf 04 e5 9b 3f
       -1.7189114 -1.2028956 -1.2656084 1.2179265
000010 04 aa f4 bf c2 fc 54 be cd de 8e bf b5 c6 3f 3f
       -1.9114385 -0.20799544 -1.1161743 0.7491258
000020 a8 fc 7a c0 0e 9f 2d be 0b c3 ac 3e 87 77 1f 40
       -3.921671 -0.16955206 0.33742556 2.4916704
000030 67 f9 68 c0 30 1c 27 c0 bf db 2f c0 2e 34 07 c0
       -3.6402223 -2.6110954 -2.7477872 -2.1125598

bias f4 [4]
000000 a3 d8 98 c0 f7 45 a5 c0 e5 44 4a c0 7a 76 c8 3e
       -4.776445 -5.1647906 -3.160455 0.3915289

weight f4 [4, 4]
000000 81 be 31 3f 40 95 96 3f 57 05 46 3f 1d 09 31 c0
       0.6943131 1.1764297 0.773519 -2.7661812
000010 64 e2 04 bf fb b9 a9 bf e4 1c 01 c0 c3 39 29 40
       -0.51907945 -1.3259882 -2.0173883 2.6441505
000020 ef a9 6d be 69 0b dd bf 13 35 02 c0 38 bc 3a 40
       -0.23209356 -1.7269107 -2.0344894 2.917738
000030 06 61 87 3f 15 eb a7 3f c4 64 f2 3e 0b dd 1e c0
       1.0576484 1.3118616 0.47342503 -2.4822414

bias f4 [4]
000000 9b c4 bc bf ff 35 d1 3e 16 67 f0 3c cf d5 02 c0
       -1.4747499 0.40861508 0.02934603 -2.0442998

weight f4 [1, 4]
000000 bd 30 37 40 cb fc ec bf 77 21 dc bf 8f 6e 1c 40
       2.8623497 -1.8514646 -1.7197713 2.444248

weight f4 [4, 1]
000000 14 a7 55 bf c4 24 86 3f cf 72 31 40 01 2f 87 bf
       -0.83458066 1.047997 2.7726324 -1.056122

bias f4 [4]
000000 c1 1c 13 40 3d 5c 72 c0 f8 37 85 c0 6b 9d 62 40
       2.29863 -3.7868798 -4.163082 3.540858

weight f4 [4, 4]
000000 c4 19 cc bf 9d 4a 2b 40 5b 88 19 40 e1 4e e1 bf
       -1.5945363 2.676429 2.3989475 -1.7602197
000010 49 4e 7c bf e5 d7 2a 40 3e 9f 88 40 b1 5d 93 bf
       -0.98556954 2.6694272 4.2694387 -1.1512967
000020 c4 ca 5a 40 61 6d 20 c0 1b c8 ab bf ea d6 8c 40
       3.4186258 -2.506676 -1.3420442 4.4012346
000030 74 dc 21 c0 e2 ee 00 40 cd df 04 40 2f c6 5e c0
       -2.5290804 2.0145802 2.0761597 -3.4808462

bias f4 [4]
000000 87 d7 ad bf fc a2 87 bf 65 42 a3 3f b7 ba d6 bf
       -1.3581399 -1.0596614 1.2754637 -1.6775731

weight f4 [4, 4]
000000 8e dc c9 c0 af 20 09 c1 29 7c 87 3f 36 b0 2e c0
       -6.308173 -8.570479 1.0584766 -2.729505
000010 e3 c0 cf 3f 1a 54 c6 3e 9b b4 2d c0 c7 43 e1 3f
       1.6230739 0.3873604 -2.7141483 1.7598809
000020 cd b9 63 3f 80 b9 50 3f d2 36 75 c0 80 07 8d 40
       0.88955384 0.8153305 -3.831471 4.4071655
000030 f6 77 0b c0 6e a7 fe bf bd 2a 53 3f ca ad 1a c0
       -2.1791968 -1.9894845 0.8248709 -2.4168572

bias f4 [4]
000000 14 97 ae 3e 46 50 b5 bf 9a b4 f7 bf 64 09 4a 3f
       0.34099638 -1.4165123 -1.935199 0.7892058

weight f4 [4, 4]
000000 0d f7 cb c0 86 e9 15 40 19 8d 70 40 5b 9b 0d c0
       -6.3739076 2.3423781 3.758612 -2.2126071
000010 d5 25 10 c1 11 fa 00 40 13 cc 1b 40 59 2e d4 bf
       -9.009236 2.0152628 2.4343307 -1.6576644
000020 c3 91 f9 c0 41 d8 01 40 10 a9 27 40 ab a9 01 c0
       -7.799043 2.028824 2.6196938 -2.0259807
000030 a2 c6 ef 40 74 66 02 c0 17 76 3c c0 5b 51 09 40
       7.492997 -2.0375032 -2.9447076 2.1455905

bias f4 [4]
000000 08 ab 14 bf 71 67 24 3f fa 48 bc 3e b5 76 69 be
       -0.5807347 0.6422034 0.36774427 -0.2279919

weight f4 [1, 4]
000000 40 a5 81 40 01 b2 3e 40 3b 89 6a 40 08 97 cf c0
       4.051422 2.9796145 3.664626 -6.4871864
