geonets/test/output/lotka_volterra.pt (torch, 49669 bytes, 50 tensors)

b f4 [2]
00000000: 9147 bfbf b91e 703f
-1.4943715 0.9379688

b f4 [2]
00000000: a720 a0bf 51c4 91be
-1.2509965 -0.2847009

b f4 [2]
00000000: 2cec cd3f 233f c1bf
1.6087699 -1.5097393

b f4 [2]
00000000: c01a 8e3f 8f5c 313f
1.1101913 0.6928186

b f4 [2]
00000000: 546e 6940 c63b e4bf
3.647359 -1.7830741

b f4 [2]
00000000: 5c28 c8c0 4f7e 21c0
-6.2549267 -2.5233343

weight f4 [6, 1]
00000000: ea10 a03f 6e98 78bf 5b82 53bf b210 9fbe
00000010: d1b1 f7bd 9590 813f
1.2505162 -0.9710759 -0.8262078 -0.31067425 -0.12094463 1.0122248

bias f4 [6]
00000000: 8ef4 99be 164f 953f 6b7f 913e 2679 653f
00000010: c635 7d3f 80ee 1f3f
-0.30069393 1.166476 0.28417525 0.8963798 0.98910177 0.624733

weight f4 [6, 6]
00000000: 55b3 8e3d e8d8 72bf 3bc7 5fbf a564 a2be
00000010: 4763 0bbe 0561 ddbd 9026 c6bd 8827 8b3f
00000020: 2a3b 4f3f 3d8a 613f 3a90 693f 9eb7 033e
00000030: fd9b 14bf 77eb 823f 5e43 443f c50f 453f
00000040: 0048 a13d 89aa 4abd 899a 083f 728b 173f
00000050: 15df 103f a3b4 703f 63cc 133f f9f1 093f
00000060: e55c 903f c580 71be 4d73 7fbe abb6 e93d
00000070: cb48 063f 421c 5a3f a112 633f a4cc 8a3d
00000080: 940b 81bd 0291 243f fa3e a93e d0de 193f
0.069677986 -0.9486222 -0.87413377 -0.3171741 -0.1361209 -0.10809521 -0.09675324 1.0871439
0.8094965 0.8810156 0.912357 0.12863013 -0.5805052 1.0228108 0.76665294 0.7697719
0.07875061 -0.04947904 0.533608 0.5919715 0.56590396 0.9402563 0.57733744 0.53884846
1.1278349 -0.23584278 -0.24946328 0.11411794 0.52454823 0.8519937 0.887003 0.06777313
-0.063010365 0.64283764 0.3305586 0.6010561

bias f4 [6]
00000000: 2c47 5e3e 10b1 2a3f f83a ae3e 1b25 123f
00000010: bce4 c73e b52a cb3e
0.21706837 0.66676426 0.34029365 0.5708787 0.39041698 0.3968102

weight f4 [6, 6]
00000000: 73e1 bb3e 184e 443f 03ba 973e 8d3d 5f3f
00000010: 9846 343f 92fb 443f 5984 d43e 5f77 513f
00000020: 4871 ab3e 4556 263f 3d0b e63e daf3 8e3e
00000030: 8007 1fbe aca7 133f 57f7 e53e 607c d13e
00000040: c3fe c53e 215d ed3e 3e07 0d3f 66df 013f
00000050: c1ab 8dbc 6e6a d63e aa2d 643f 7195 493f
00000060: db9d 853e 8b9c 933e 568e 123e dd1a 8c3e
00000070: ff25 703f b4b3 693f adf1 b03e c6d9 473d
00000080: a66f afbe 4430 c83e c3e6 463f cd23 1f3f
0.36695442 0.7668166 0.29634103 0.87203294 0.7042022 0.76946366 0.41507223 0.8182277
0.33484864 0.64975387 0.4493045 0.2792042 -0.15530205 0.5767772 0.44915268 0.40915203
0.3867093 0.46360114 0.55089176 0.50731504 -0.017293813 0.41878074 0.8913218 0.78743654
0.26096997 0.2883037 0.1431211 0.27364245 0.9380798 0.9128983 0.34559384 0.04879167
-0.34264868 0.39099324 0.77695864 0.62164

bias f4 [6]
00000000: 0950 253f 3c9d 643f e3ab 033f f926 2c3f
00000010: b385 403f 8194 763e
0.6457525 0.8930242 0.51434153 0.6724697 0.7520401 0.24080087

weight f4 [6, 6]
00000000: 918d 203f 2d60 973e a51a 253f 0002 db3e
00000010: 52b1 793f 89a8 473f 9c81 9d3e d677 663f
00000020: 8d27 733f 621c 2d3f d9c2 6f3f f1dd 173f
00000030: a529 533f 0720 b43e 7dcf a13e 6fc1 373f
00000040: 0492 1d3f c05a 813f 204e d63e cbbd 5f3f
00000050: 87c5 763f 1f19 4d3e 4a46 e73e 1649 403e
00000060: b690 643f 7ae6 1e3e e9e2 6a3f 8f1a 513f
00000070: 6634 2d3f 69aa 233e 1b60 553f c0ef c83e
00000080: e6cd 5e3f e1e3 a73e 0e52 113f 0d9a 8d3e
0.62716013 0.29565564 0.6449378 0.42774963 0.97536194 0.7799154 0.30762947 0.90026605
0.94982225 0.67621434 0.9365669 0.5932303 0.8248542 0.35180685 0.31603613 0.7177953
0.6155093 1.010582 0.4185648 0.87398976 0.9639515 0.20029114 0.45170814 0.1877788
0.8928331 0.15517607 0.9175249 0.8168115 0.6765808 0.15982975 0.8334977 0.39245415
0.87032926 0.32791045 0.5676583 0.27656594

bias f4 [6]
00000000: d929 fc3e 7bec 633e c320 a73d 244d 5a3f
00000010: 920f e73e 6144 273f
0.49250677 0.22258179 0.08160546 0.8527396 0.45129067 0.6533871

weight f4 [6, 6]
00000000: 58aa 813f b6c9 253f 71b5 913f d35e 0a3f
00000010: 697a 813f 1bee 683f 14d3 643f a413 773f
00000020: 673e 473f 63f7 ff3e 8e25 473f 1dd0 403f
00000030: 3a88 233f 8c73 333f e4c3 513f eade 5b3f
00000040: aad9 8a3f c05e 843f 0413 8c3f 56d1 3c3f
00000050: 370d 9c3f 2cdc f83e 5363 4c3f 0c8b b73e
00000060: 990b 153f 2983 783f 80ad 6f3f 28e0 273f
00000070: a410 523f 0372 8a3f a3f3 703f ce40 423f
00000080: 0ac3 133f dec1 943f dba2 903f 3762 1d3f
1.013011 0.6476091 1.1383497 0.5405094 1.0115482 0.9098832 0.8938458 0.96514344
0.77829593 0.4999343 0.7779168 0.75317556 0.6387974 0.70098186 0.8193953 0.85887015
1.0847676 1.0341415 1.0943303 0.7375692 1.2191533 0.48605478 0.79839057 0.35848272
0.5822082 0.97075135 0.93624115 0.6557641 0.8205664 1.0816044 0.9412176 0.75880134
0.5771948 1.1621664 1.12997 0.6147799

bias f4 [6]
00000000: dbe5 023f 9b0c 3c3f f42b 493f 5dc7 273f
00000010: 5440 433f 1798 8b3e
0.5113198 0.73456734 0.7858269 0.6553858 0.7627003 0.27264473

weight f4 [1, 6]
00000000: 3f02 1b40 3a6f 1a40 f4cc 1540 8a53 1e40
00000010: a5d6 1640 87ab 2b40
2.422012 2.4130387 2.3406343 2.4738488 2.3568509 2.6823442

weight f4 [6, 1]
00000000: bbe2 b13f d7c8 be3f 417b b5bf eb99 873f
00000010: 19fc b03f 2cfa babf
1.3897318 1.4905041 -1.4178239 1.0593847 1.3826934 -1.4607596

bias f4 [6]
00000000: 7d77 84c0 edc1 703f cefe 3840 db6f 6fc0
00000010: bef5 82c0 24c9 4940
-4.139586 0.9404591 2.890552 -3.741202 -4.092498 3.1529016

weight f4 [6, 6]
00000000: d7df 8c40 db7d 5b3f e673 1bc0 f07d 3840
00000010: 6903 a140 441a 0dc0 7109 3ac0 efc9 81bf
00000020: 428a 2940 1190 f4bf a451 46c0 7a7c 0840
00000030: 4d4a 1040 4594 5abf 881e f5c0 4439 353f
00000040: 3820 0c40 fba5 e3c0 4063 14c0 9ecb 513e
00000050: 07a2 4540 1ff3 95bf 1e94 13c0 525b 6140
00000060: 61b5 7040 99c1 80be be61 01c0 4467 e73f
00000070: bb4c 5040 c9ee 15c0 3dd9 9b40 ed77 8b3f
00000080: 011e 23c0 77bf 3940 f8f6 9340 384d 34c0
4.402324 0.85738915 -2.4289489 2.8826866 5.0316663 -2.2047281 -2.9068263 -1.013975
2.6490636 -1.9106466 -3.098733 2.1325974 2.254535 -0.8538249 -7.659977 0.70790505
2.1894665 -7.1140113 -2.3185577 0.2048783 3.0880144 -1.171482 -2.3059154 3.5211987
3.7610705 -0.25147703 -2.0215907 1.8078389 3.2546833 -2.3426993 4.8702683 1.0895973
-2.5487063 2.902311 4.6238976 -2.817213

bias f4 [6]
00000000: bf26 943e 6e60 26bf 808a 15c0 e561 2f3f
00000010: 81df a0bd b269 273f
0.2893581 -0.6499089 -2.3365784 0.6850875 -0.0785513 0.65395653

weight f4 [6, 6]
00000000: 7400 5d3f 81ac 0cc0 c866 cb40 452e 39c0
00000010: a458 e23f c783 9a3f cbba 5740 c3bd cebf
00000020: 9b2d 7540 94fe eabf a177 8440 bcb1 7740
00000030: ae50 063f 388f a2c0 6623 bf40 58a2 bbc0
00000040: db90 383f d2b6 38be 1bca 8141 06a1 7ac0
00000050: 02cf 9a40 b052 0dc0 774c 4f41 756b 8941
00000060: 3478 0540 a3b3 fabf 6558 bb40 cecc 15c0
00000070: 2637 0d40 18d3 3c40 7182 ccbf 0fe5 c73f
00000080: 0cb3 9dc0 37aa d23f 4a61 b5bf 6b80 e1bf
0.86328816 -2.1980288 6.3562965 -2.893449 1.7683301 1.2071465 3.370776 -1.6151661
3.8309085 -1.8358941 4.139603 3.870223 0.5246686 -5.0799828 5.973071 -5.8635674
0.7209603 -0.1803849 16.223684 -3.916078 4.8377695 -2.2081718 12.956168 17.17747
2.0854616 -1.9586071 5.8545403 -2.3406253 2.206491 2.9503841 -1.5977308 1.5616778
-4.9281063 1.6458195 -1.4170315 -1.7617315

bias f4 [6]
00000000: f6b9 9ebf 2070 653d 2019 01c0 4589 86bf
00000010: 43b8 8fbe 91cf 63be
-1.2400501 0.056015134 -2.0171585 -1.0510641 -0.28070268 -0.22247149

weight f4 [6, 6]
00000000: 706d bdc0 9c64 85bf 7c06 adc0 8f2c 64bf
00000010: 2b58 c3bf 2ee6 b83f a228 aec0 cdb7 13c0
00000020: e46a 81c0 af68 8bbf 11e8 1ac0 4fd6 5f3f
00000030: d59d 20c0 bed4 123e 0e33 e7c0 4e71 073f
00000040: 9c5a 13be 1c27 5c40 a316 ae40 bc17 aa3f
00000050: a347 2c40 f349 213f b85f dc3f 0d02 b7bf
00000060: 8830 a53e 4729 a5bf c858 4641 ba92 e1bf
00000070: f354 8ebf e8e4 9bc0 d055 8440 74d8 0540
00000080: ab58 2840 e446 ae40 88f9 b13f a39c e2bf
-5.919609 -1.0421329 -5.4070415 -0.8913049 -1.5261282 1.4445245 -5.44246 -2.3080933
-4.044298 -1.0891322 -2.4204142 0.87436384 -2.5096333 0.14338967 -7.2249823 0.52907264
-0.14390033 3.439887 5.4402633 1.3288493 2.6918724 0.6300346 1.7216711 -1.4297501
0.3226359 -1.2903222 12.396675 -1.7622902 -1.1119674 -4.8716927 4.135475 2.0913363
2.6304119 5.4461536 1.3904276 -1.7704052

bias f4 [6]
00000000: 4f42 0040 defc 9c3f c1e0 b63f 45e6 e4bf
00000010: b198 32c0 1f4f e1bf
2.0040472 1.2264669 1.428734 -1.7882773 -2.7905695 -1.7602271

weight f4 [6, 6]
00000000: 5a60 86c0 2a35 83c0 9629 66c0 5488 bebf
00000010: 1afc 0241 3d60 fbbf a4ec 8b40 5d01 d740
00000020: da0a 2040 13f7 1abf 9070 1ac1 ebbc 66bf
00000030: ea56 89c0 b1d1 66c0 bfdf b3c0 5c8f 32c0
00000040: 4a36 7741 b8b9 40c0 bf23 10c0 5683 11c0
00000050: ab22 a3bf f161 c13f 74cd 8c40 aa1f cb3f
00000060: c890 b2c0 5c97 94c0 b883 7cc0 816b 363e
00000070: b2aa 7c40 145d bd3e 95bf 3f40 b61c 6940
00000080: 9df4 7b3d d31d 89c0 72bc ddbf f68c 8fc0
-4.1992617 -4.1002398 -3.5962882 -1.4885354 8.186548 -1.9638745 4.372637 6.7189164
2.5006623 -0.60533255 -9.652481 -0.90132016 -4.2918596 -3.6065485 -5.6210628 -2.79
15.450754 -3.0113354 -2.2521818 -2.273641 -1.2744955 1.5108014 4.4000797 1.5869038
-5.5801735 -4.6434765 -3.9455395 0.17814447 3.9479184 0.36985075 2.9960682 3.6423774
0.06151258 -4.2848907 -1.7323134 -4.485957

bias f4 [6]
00000000: 54e6 23c0 1a74 edbd 75bf 65c0 1332 773f
00000010: 71ab 8abf 7b4e e4bf
-2.560933 -0.1159441 -3.5898106 0.9656078 -1.083357 -1.783645

weight f4 [1, 6]
00000000: 95d1 9940 4acd 2cc0 b040 3741 329f d13f
00000010: 90ac 1c40 ccba 60c1
4.8068337 -2.7000299 11.453293 1.6376708 2.4480324 -14.045605

weight f4 [6, 1]
00000000: 3b35 6e3f 6c8b 9b3f 11bb 023f 5b57 2bbe
00000010: baf4 123e 1799 fd3e
0.93049973 1.2151923 0.5106669 -0.16732542 0.14351168 0.4953086

bias f4 [6]
00000000: 54b8 183f b98b 843e 15f6 7b3f 195c 81be
00000010: caf3 5f3e b003 a63f
0.5965626 0.2588785 0.98422366 -0.25265577 0.21870342 1.2969875

weight f4 [6, 6]
00000000: 4fa8 b43e 8e82 e83e 20a8 293f f702 353e
00000010: 1e52 d73e 8e12 303e 70d0 063f 69ac 223f
00000020: bc83 083f 9013 c93e 600e 353f 8929 5f3f
00000030: 6df1 333f 95db e53e 5a77 7d3f b9c1 613f
00000040: 7590 5b3f 22c5 3b3f a488 a83e 0571 eb3e
00000050: 096a f73e 5fdc f13e 3961 573e 1e2e 613f
00000060: a7d0 fe3e f985 143f 33ca 233e 263f a8be
00000070: 05c4 723e d4dd 583f 4da1 d8bd 4bb5 c2be
00000080: fc96 32bf 2bf3 efbd c9be 54bc 452d 6abe
0.3528466 0.45412105 0.66272163 0.17676912 0.42054838 0.17194578 0.526618 0.6354433
0.5332601 0.39272738 0.7072506 0.8717275 0.7029026 0.4489409 0.9901024 0.8818622
0.857673 0.73347676 0.3291675 0.45984665 0.48323086 0.47238442 0.21033181 0.87960994
0.49768564 0.58016926 0.15995102 -0.32860678 0.23707588 0.8471348 -0.10577641 -0.3802894
-0.69761634 -0.117163025 -0.01298494 -0.22868831

bias f4 [6]
00000000: f323 b33e 29e7 dc3e 40b5 0c3f 7d9e 4d3f
00000010: e6fd 1e3f 9cad 2abc
0.34988365 0.4314511 0.54964066 0.8031996 0.6210617 -0.010417368

weight f4 [6, 6]
00000000: 7c70 2e3e a659 3a3f 6fcb 403f 339e 093f
00000010: 4b63 253f 7e6a cebe 8b47 abbd 18c1 443d
00000020: ec04 35be cc45 e2be 7ee2 e5be ae2f 653e
00000030: d097 eb3e 332a 733f a94b 013f 3998 5e3e
00000040: 4305 1b3f e7af 653e 5434 313f 1bff 623f
00000050: ec65 263f 2542 583f 7ca3 3c3f 486c ca3e
00000060: 95df a43e 316e 893f 0f83 013f 5c69 4a3f
00000070: ced9 b73e 8d56 da3e ebf4 603f 500f 143f
00000080: e886 573f 4a31 553f b5a8 bf3e b5cb 27bd
0.17035097 0.7279304 0.75310415 0.5375702 0.64604634 -0.40315622 -0.08363255 0.04803571
-0.17677659 -0.44193876 -0.44899362 0.2238147 0.4601426 0.94986266 0.50506073 0.21737756
0.60554904 0.22430383 0.6922047 0.8867051 0.6499927 0.8447593 0.7368696 0.39535737
0.3220183 1.0736753 0.50590605 0.79067016 0.3590836 0.42644158 0.87873715 0.57835865
0.84190226 0.83278334 0.374334 -0.040965755

bias f4 [6]
00000000: 3999 a53e d8ae e4be 7bf4 453f e300 263f
00000010: ec8c 813f 07e6 893e
0.32343462 -0.44664645 0.7732617 0.64845103 1.0121131 0.2693331

weight f4 [6, 6]
00000000: ca86 a83e 4f03 153e c13e 1e3f fa8a 253f
00000010: fd11 473f ece3 753f 49fb 663f 1170 91be
00000020: cd71 463f 85b0 163f 0e8a 2d3f db30 f43e
00000030: 7fc9 133f 94d6 23be ea08 413f 86d8 5a3f
00000040: ec6a 403f 573b 1c3f 8587 473f 3998 8d3e
00000050: b158 703f 22a3 b93e d60f a53e 3c2d fb3e
00000060: d702 f03e 922b 7fbc 93af 803f f5a7 c53e
00000070: e7bd 753f e52d 383f 3e49 223f 5d9a 6a3e
00000080: 5010 8c3f 9e32 173f ebad dc3e 819d e23e
0.32915336 0.14552043 0.61814505 0.64665186 0.7776182 0.96050906 0.9022718 -0.28405812
0.77517396 0.588631 0.6778878 0.47693524 0.57729334 -0.15999824 0.75404227 0.8548664
0.7516315 0.61028045 0.7794116 0.276552 0.9388533 0.36257273 0.32238644 0.4905795
0.46877167 -0.015574353 1.0053581 0.38604704 0.95992893 0.7194503 0.6339301 0.22910447
1.0942478 0.5906161 0.4310144 0.4426079

bias f4 [6]
00000000: aead 563f 7a3f e73c 11c9 fd3e d296 e63d
00000010: 14ec 1c3e 9046 ab3e
0.83858764 0.02822851 0.49567464 0.112592354 0.15324432 0.33452272

weight f4 [6, 6]
00000000: c488 6b3f aeb0 2b3f 5c99 223f 8030 663f
00000010: aa84 293f 5605 693f bb12 3f3f a2c0 3b3f
00000020: 9dc2 303f dbbd 543f e01a 893f ebb6 753f
00000030: 2a93 bd3e ca0f 643f a90a 6e3f 6758 563f
00000040: 2433 4d3f 9147 c23f cd47 603f 8aee 773f
00000050: ef95 873f fedd 9b3f ab42 5c3f 9a64 213f
00000060: 7614 7f3f 633c 3d3f eb44 703f 962f 1e3f
00000070: 6827 9a3f 01b9 403f c4a6 c23e 3312 793f
00000080: ab73 353f 0699 693f f177 ff3e 4c86 813f
0.9200556 0.67066467 0.6351526 0.89917755 0.66218054 0.91023767 0.74637955 0.7334081
0.69046956 0.83102196 1.0711327 0.95982236 0.3702634 0.8908659 0.92985016 0.8372864
0.8015616 1.517809 0.8760956 0.96848357 1.0592631 1.2177122 0.8603923 0.6304413
0.99640596 0.7392027 0.9385516 0.6179136 1.2043276 0.75282294 0.38017857 0.97293395
0.7087962 0.9124912 0.49896196 1.0119109

bias f4 [6]
00000000: cdbd 893f c6bd 353f 3783 073f 69d4 0d3f
00000010: 47df d83e 374d 0a3f
1.0761048 0.70992696 0.5293459 0.5540224 0.42357847 0.5402407

weight f4 [1, 6]
00000000: c96d 1d40 fdea 2140 c9cb 2240 7dda 1440
00000010: e6b1 2740 3f7d 0840
2.4598258 2.5299675 2.543688 2.3258355 2.620233 2.1326444

weight f4 [6, 1]
00000000: e860 5bbf 9eec ff3e 8892 603f 482c 4fbf
00000010: 464a a23f cda0 523f
-0.8569474 0.49985212 0.8772359 -0.8092694 1.2678916 0.8227661

bias f4 [6]
00000000: 4804 9e3e 68eb e53e a2d2 a53e d0c8 763e
00000010: ccb2 c8bf 1fdf 27be
0.3086264 0.44906163 0.32387263 0.24100041 -1.5679564 -0.16393708

weight f4 [6, 6]
00000000: b831 5bbf 47af 68bd 9d66 473e 2b8c 3cbe
00000010: a9d6 2b3f 1f28 213e caca 48be 82ee 0c3f
00000020: 49c8 163f 8a75 2cbf fbec 2f3f 6eb4 053f
00000030: f1e4 83bf 8ada e43e 140d 083f 1b51 96bf
00000040: 93af ac3f d99f 033f b05f 19be 6b4d 3b3e
00000050: fb28 743f 2462 34be 35d3 2e3f 44e1 aa3e
00000060: 58d5 48bf 8e81 8f3e 83fd 713f ab56 2fbf
00000070: d6cc a93f d7b8 4e3e e66d d03d d411 46be
00000080: 9db3 a6be 90c3 b6be 4328 10bf fea0 89be
-0.8562274 -0.056807783 0.19472738 -0.18412845 0.6712442 0.15737961 -0.19608608 0.55051434
0.5889936 -0.6736685 0.6872098 0.5222844 -1.0304242 0.44697982 0.53144956 -1.1743501
1.3491081 0.51415783 -0.14977908 0.18291251 0.9537503 -0.17615563 0.68291026 0.3337499
-0.78450537 0.2802853 0.94527453 -0.6849162 1.3265636 0.20187698 0.101772115 -0.19342738
-0.3255891 -0.35696077 -0.56311435 -0.2688064

bias f4 [6]
00000000: 4bdb ae3e 089c 423f 3400 ccbd 25f8 a83e
00000010: 8a39 9d3c dbdc babd
0.34151682 0.76019335 -0.09960976 0.3300182 0.019192476 -0.09124156

weight f4 [6, 6]
00000000: 7ae7 013f bd90 723f d335 813f 656d bf3e
00000010: 37fe 313f 7827 223e 230f e93d 2fbf 453f
00000020: 2324 0c3f f13d 823f cfce 073f 4bb8 dbbd
00000030: f62e ae3e 146b 1e3f f269 463f 1a8c 813f
00000040: 079e 883f cafb 2dbe 3e27 273f 0449 0b3f
00000050: d0c8 433f 1e4a 0d3f c355 8f3f bf2d 403d
00000060: ca0b c13e 4463 563f e97a 7a3f b920 7b3e
00000070: b1a8 7f3f ef24 193d 6690 a43e caac 6f3f
00000080: cf5e 843f cc2e 073f 9bd2 003f ac12 59be
0.5074383 0.94752103 1.0094551 0.3738815 0.69528526 0.15835369 0.1137984 0.7724485
0.5474264 1.0175153 0.5304994 -0.107285105 0.34020203 0.6188214 0.7750541 1.0120881
1.0673226 -0.16990581 0.65294254 0.5440829 0.7647829 0.5519122 1.1198047 0.046918627
0.37704307 0.8374522 0.97843796 0.24524201 0.9986678 0.03738874 0.32141417 0.9362303
1.0341433 0.5280578 0.5032136 -0.21198529

bias f4 [6]
00000000: 92ca fa3e 4e38 0e3f d916 693e 9a97 ac3e
00000010: 6839 fb3d d259 d83e
0.48982674 0.55554664 0.22762622 0.33709413 0.12266809 0.42256027

weight f4 [6, 6]
00000000: dd6b 1c3e bced 183f b061 003f 6f4b ca3e
00000010: 0daa 813e e581 473f 9606 6c3e da19 d43e
00000020: 83c6 833f 9160 783f 166f 063f b45f 673f
00000030: 664e 903f eb0b 033f 0beb 233f c4a6 303f
00000040: b8ea 063f 3068 183f ea44 423f db1c f03e
00000050: a144 323f baf3 7e3f 654f 2f3f 38b8 233f
00000060: f05c a53e 4e1d 543f 80e5 0e3f bd21 6a3f
00000070: 52a3 fe3e ff26 4b3f 7270 223f 194a 293f
00000080: 8928 6a3f c713 2e3f e7ac fe3d 1a48 253f
0.15275522 0.59737754 0.5014906 0.39510676 0.2532505 0.7793258 0.23049387 0.41425973
1.0294956 0.9702235 0.52513254 0.90380406 1.1273925 0.5119006 0.6403052 0.69004464
0.527019 0.5953398 0.75886405 0.46897015 0.6963597 0.9959065 0.6848052 0.6395297
0.32297468 0.82857215 0.5581894 0.9145773 0.4973398 0.7935638 0.6345283 0.6612869
0.914681 0.6799893 0.12435322 0.64563143

bias f4 [6]
00000000: 9f23 473f 87db 173f 2bd5 113f 477b 7f3e
00000010: b981 0f3f 4d83 063f
0.7778873 0.5931935 0.56965894 0.2494937 0.56057316 0.525441

weight f4 [6, 6]
00000000: 0c61 ae3f 4b58 813f 9454 673f cfe2 493f
00000010: b7f0 1a3f 8905 a93f ed74 f13e 8fff 913f
00000020: 6233 443f 623e 9e3f 9ed1 803f d154 413f
00000030: 47d7 dd3c ee16 3a3f cd85 c33e e555 4c3f
00000040: 1512 0e3d 059b 833d 5931 2c3f 9612 133f
00000050: f3cb 643f 1415 b33f 2a22 613f 5de8 3c3f
00000060: d108 8a3f de6c 733f 9f0c 0c3f 4b5e 483f
00000070: 53d5 7e3f 94f4 303f 9c80 183f 5eb0 3e3f
00000080: 71c9 8d3f f202 fa3e bc97 063f 850d 8a3f
1.3623366 1.010507 0.9036343 0.7886171 0.6052355 1.3204814 0.4715952 1.1406115
0.76640904 1.2362788 1.006397 0.75520045 0.027080191 0.7269124 0.3818802 0.79818565
0.034685213 0.06426052 0.672628 0.57450235 0.893737 1.3990808 0.87942755 0.7379206
1.078394 0.95087993 0.5470676 0.7826888 0.99544257 0.69123197 0.5957124 0.74487865
1.10771 0.48830372 0.5257528 1.0785376

bias f4 [6]
00000000: fce7 fe3e 3726 023f 699d 0d3f 8d24 1d3f
00000010: 7797 fc3e 9f63 7e3f
0.49786365 0.5083956 0.55318314 0.613839 0.49334309 0.9937076

weight f4 [1, 6]
00000000: 092d 13c0 39aa 11c0 f563 aebf 286d 12c0
00000010: 71eb 30c0 a27e 27c0
-2.2996237 -2.2760146 -1.3624254 -2.2879124 -2.7643702 -2.617104
